.dart_tool/chrome-device/Default/optimization_guide_prediction_model_downloads/d55a0e12-c4f8-4a8f-b67b-266be6843a21/model.tflite (tflite, 410376 bytes, 166 tensors)

context_transformer_0/bottleneck_input/norm/add f4 [32]
0.025484327 0.120016724 0.06722509 0.071894415 0.021568188 0.09173834 0.005715315 0.06104711
-0.053097658 0.056825973 0.09280527 -0.16385496 0.029574279 0.11064139 0.0024685368 0.035751395
0.09708368 -0.11556821 -0.072789475 0.046532065 0.17846711 -0.005435962 -0.18028218 0.06957582
0.063847944 0.036351115 -0.009406495 0.12184562 0.13371633 0.16829517 -0.037383605 0.019750383
00000000: 82c4 d03c 54cb f53d 4fad 893d 613d 933d
00000010: c5af b03c 50e1 bb3d 8a47 bb3b 890c 7a3d
00000020: ee7c 59bd 5ac2 683d b010 be3d 98c9 27be
00000030: c245 f23c f497 e23d 2dc7 213b 0e70 123d
00000040: cfd3 c63d 07af ecbd a612 95bd 6898 3e3d
00000050: 15c0 363e 2820 b2bb e49b 38be c47d 8e3d
00000060: b6c2 823d e8e4 143d b31d 1abc 328a f93d
00000070: efec 083e 9255 2c3e 8d1f 19bd 8ecb a13c

context_transformer_1/bottleneck_input/norm/add f4 [32]
0.0040443977 0.055632062 -0.23592252 0.020429403 -0.12764716 -0.10141094 -0.35337853 -0.1522458
-0.062422954 -0.07243548 -0.11628987 -0.06465544 -0.1876246 0.0057151495 0.077746436 0.062732905
-0.15554242 0.03507727 0.14031805 0.10938214 0.05185902 -0.031485885 -0.13054836 0.014040595
0.053159356 0.006652987 -0.08194095 0.03773627 -0.025184412 -0.066567615 -0.049187265 -0.12016479
00000000: de86 843b 72de 633d ac95 71be 905b a73c
00000010: f0b5 02be 8ab0 cfbd 08ee b4be 53e6 1bbe
00000020: 36af 7fbd 0e59 94bd 6229 eebd 126a 84bd
00000030: aa20 40be 2646 bb3b 8639 9f3d 1c7a 803d
00000040: 8346 1fbe 2fad 0f3d 89af 0f3e be03 e03d
00000050: 206a 543d 58f7 00bd 78ae 05be 860a 663c
00000060: a0bd 593d 4d01 da3b a8d0 a7bd 5991 1a3d
00000070: 8a4f cebc 9a54 88bd 9678 49bd f518 f6bd

mention_transformer_0/bottleneck_input/norm/add f4 [32]
-0.10370538 0.1399732 0.21915825 -0.017699996 0.01014778 0.18625104 -0.01160496 0.28642833
0.0959346 0.1365189 0.17395806 0.09601544 -0.13163301 0.0074536595 0.121276036 0.15442204
-0.18254401 -0.2294802 0.13369763 -0.058156125 -0.07469903 0.047032557 0.057641976 -0.049416777
0.07412188 0.075074464 0.10013124 0.15176407 -0.24309233 0.27749306 -0.024925807 0.03812272
00000000: 7c63 d4bd 2255 0f3e 056b 603e 95ff 90bc
00000010: e042 263c 98b8 3e3e bb22 3ebc bca6 923e
00000020: 5c79 c43d 9ccb 0b3e 1022 323e bea3 c43d
00000030: ceca 06be d43d f43b 925f f83d d020 1e3e
00000040: d1ec 3abe dcfc 6abe 08e8 083e 1e35 6ebd
00000050: cefb 98bd 36a5 403d fe19 6c3d 3f69 4abd
00000060: 36cd 973d a4c0 993d 9c11 cd3d 0a68 1b3e
00000070: 32ed 78be 9213 8e3e 3531 ccbc 9226 1c3d

mention_transformer_1/bottleneck_input/norm/add f4 [32]
0.34443244 -0.09659827 0.17681119 -0.22928476 -0.22457719 0.13841555 -0.57734656 -0.047611885
-0.26726234 0.02758496 0.17416868 -0.22218297 -0.2403526 -0.09145445 -0.41808015 -0.2456899
-0.030229693 -0.26061437 -0.05541724 0.044194587 0.2568264 0.33764118 -0.22342792 0.13707641
-0.026364114 -0.25255975 -0.006451113 -0.019068124 -0.20490594 -0.2332945 -0.36649883 0.027930893
00000000: 7359 b03e 50d5 c5bd fe0d 353e a0c9 6abe
00000010: 90f7 65be cebc 0d3e fccc 13bf ae04 43bd
00000020: 9cd6 88be dbf9 e13c 4659 323e ef83 63be
00000030: fe1e 76be 784c bbbd 9a0e d6be 2296 7bbe
00000040: 43a4 f7bc 3f6f 85be 30fd 62bd 6205 353d
00000050: c07e 833e 4edf ac3e 4aca 64be c25d 0c3e
00000060: 8ef9 d7bc 834f 81be dc63 d3bb c134 9cbc
00000070: ddd2 51be c1e4 6ebe bca5 bbbe 54cf e43c

context_transformer_0/attention/value/add;context_transformer_0/attention/value/einsum/Einsum;context_transformer_0/attention/value/add/ReadVariableOp/resource f4 [32]
-0.068166666 0.019460635 -0.051826134 -0.01562014 0.07680601 -0.06165218 -0.01239042 0.093136035
0.013206708 0.011681075 -0.026295332 -0.0099060405 0.080531836 0.00037991014 0.03585348 -0.07369706
-0.006760281 -0.019606574 0.07082743 -0.06907832 0.042263858 0.067335255 -0.07000058 0.02918536
0.073189884 0.019672727 0.068684004 -0.04054415 0.06657409 -0.026376788 -0.03648875 0.08675039
00000000: f79a 8bbd e96b 9f3c a447 54bd 9eeb 7fbc
00000010: 784c 9d3d ff86 7cbd 3001 4bbc 1bbe be3d
00000020: f360 583c fb61 3f3c 4f69 d7bc f24c 22bc
00000030: e0ed a43d ad2e c739 19db 123d 7cee 96bd
00000040: 5985 ddbb f79d a0bc f90d 913d ef78 8dbd
00000050: de1c 2d3d 11e7 893d 775c 8fbd 2316 ef3c
00000060: 94e4 953d b328 a13c 33aa 8c3d 9f11 26bd
00000070: ff57 883d 2214 d8bc 3a75 15bd 30aa b13d

context_transformer_0/bottleneck_input/norm/mul f4 [32, 32]
0.12889476 0.006799269 0.100489095 0.37694916 -0.22435692 -0.046033256 -0.66991794 0.10052991
0.26603958 0.09152902 0.5092364 0.13754189 0.510243 0.36347556 0.34573618 0.09931544
0.73741215 0.3514474 -0.19742534 0.6083381 -0.061720375 0.13167737 0.1621798 -0.10663865
-0.25614432 -0.13105547 -0.35369247 -0.4293862 0.615919 -0.07863771 0.3657208 0.10380052
-0.17155772 0.2031624 0.106512 0.1318461 0.27326158 -0.08771445 0.2727355 0.18133046
-0.23237269 0.045469135 -0.10708342 0.070140995 -0.3469188 0.021922465 -0.12507853 -0.0824103
0.14472629 0.019490767 0.016153887 0.040004976 -0.07774316 0.008242847 -0.09607005 0.06424987
0.008825689 -0.060850278 -0.22201924 0.028625185 0.30109832 0.28077456 -0.17507729 0.08401441
-0.08802892 0.34902248 0.27889675 0.021044984 0.21655172 0.41795823 0.20472746 0.21043696
0.028795013 -0.033978134 0.27998632 0.3191114 0.18294702 0.23901536 0.22364499 0.40206078
-0.08192596 0.14885359 0.159107 -0.10443269 -0.06397343 0.010329388 -0.361546 0.15193003
-0.0046862857 -0.07540225 0.27037737 0.010109189 -0.29993278 0.13358061 -0.03351306 0.12563117
-0.021156427 -0.09875465 -0.045823604 -0.08575064 0.24425998 0.29745957 -0.070744984 -0.1629942
-0.1084776 -0.16773185 -0.2495456 -0.058775853 0.16660197 0.06537326 0.22414775 -0.19311531
-0.37464333 0.3902836 -0.27378872 0.15097633 0.20925236 0.08365405 -0.097315535 -0.042519215
0.2539214 0.009769054 -0.14978977 0.022144686 0.113354415 -0.2521878 0.033574805 -0.1967337
0.02743234 -0.16440788 -0.075023286 -0.40833184 0.64914995 0.2757606 -0.18107304 0.2090596
0.39662173 -0.21411262 0.27183357 -0.59954983 0.7442481 -0.18376683 -0.3258441 -0.54271746
0.14763488 -0.13003235 -0.47972488 -0.019140953 -0.4503529 0.419591 0.72657174 -0.3869521
-0.001477539 -0.74394673 -0.18376648 0.507419 0.635747 0.38599804 0.6279744 -0.3264784
-0.35876152 0.09508247 -0.37860364 0.027997587 0.069912426 0.15889433 0.05998834 -0.12410334
0.14630969 -0.33302233 0.20339191 0.33343753 0.11903172 -0.017105456 0.07980592 0.10646932
0.46561164 0.18070117 -0.21531199 0.15356283 -0.24187113 -0.27841133 0.09900952 -0.112349674
-0.042619426 -0.30018148 0.0965932 -0.03991608 0.22037347 0.051555436 0.12085407 0.0075208214
-0.023245709 -0.03836378 -0.036085673 -0.024739794 0.08259128 -0.17034894 -0.041757926 0.0125258565
0.06735611 -0.013367514 -0.0060920394 -0.06391154 0.10337352 -0.051120218 -0.16959326 -0.028018553
-0.07459591 -0.17715801 0.097474284 0.023612605 -0.012169578 -0.013832727 -0.07776523 0.10047139
-0.19425578 0.0942451 -0.0003669729 0.07174506 0.18521166 0.005241789 -0.17306766 -0.025134685
0.3323662 0.2373743 0.12819757 -0.091539726 -0.0056991866 0.49592856 0.3341791 0.04163142
-0.116807505 -0.23805533 -0.28430048 0.014947216 -0.042063013 -0.0437411 0.09652189 0.08296997
-0.3515742 -0.1083958 0.22143558 -0.1824972 -0.20768471 -0.08346989 -0.278838 -0.047268298
-0.11148153 0.09072662 0.39234096 -0.27947918 -0.19211294 0.004544832 -0.5304227 -0.10254521
00000000: fdfc 033e 67cc de3b 3acd cd3d 7bff c03e
00000010: d2bd 65be 5e8d 3cbd be7f 2bbf a0e2 cd3d
00000020: 5736 883e 9173 bb3d 515d 023f c8d7 0c3e
00000030: 499f 023f 7819 ba3e 5504 b13e e565 cb3d
00000040: 0bc7 3c3f eaf0 b33e de29 4abe 0cbc 1b3f
00000050: 81ce 7cbd 6fd6 063e 7612 263e 5d65 dabd
00000060: 5925 83be 6833 06be 2e17 b5be 82d8 dbbe
00000070: deac 1d3f cf0c a1bd c23f bb3e 5e95 d43d
00000080: d4ac 2fbe ce09 503e f722 da3d aa02 073e
00000090: f1e8 8b3e a2a3 b3bd fda3 8b3e b1ae 393e
000000a0: 1bf3 6dbe d83d 3a3d 8d4e dbbd 15a6 8f3d
000000b0: 579f b1be be96 b33c 9614 00be bbc6 a8bd
000000c0: 2133 143e 1aab 9f3c 2855 843c 42dc 233d
000000d0: ce37 9fbd 020d 073c 60c0 c4bd 7095 833d
000000e0: 9f99 103c 243e 79bd 0359 63be 5d7f ea3c
000000f0: 8f29 9a3e afc1 8f3e 7647 33be bf0f ac3d
00000100: 8248 b4bd 13b3 b23e 8ecb 8e3e 8866 ac3c
00000110: bcbf 5d3e 9ffe d53e 13a4 513e c97c 573e
00000120: 85e3 eb3c a82c 0bbd 5e5a 8f3e 9262 a33e
00000130: 7756 3b3e 71c0 743e 3103 653e e9da cd3e
00000140: ccc8 a7bd 136d 183e f2ec 223e cee0 d5bd
00000150: 8004 83bd 983c 293c 8f1c b9be 8c93 1b3e
00000160: 6a8f 99bb 7f6c 9abd e76e 8a3e 03a1 253c
00000170: ca90 99be 5bc9 083e fe44 09bd 75a5 003e
00000180: 3e50 adbc e13f cabd 88b1 3bbd 089e afbd
00000190: 4a1f 7a3e 9f4c 983e bfe2 90bd f4e7 26be
000001a0: 8129 debd e6c1 2bbe e288 7fbe f3be 70bd
000001b0: b599 2a3e 6ae2 853d fd86 653e 05c0 45be
000001c0: 40d1 bfbe 41d3 c73e 092e 8cbe 8a99 1a3e
000001d0: 4046 563e d152 ab3d 5e4d c7bd a128 2ebd
000001e0: fc01 823e 620e 203c 7d62 19be c668 b53c
000001f0: 5c26 e83d c21e 81be bc85 093d 8f74 49be
00000200: c9b9 e03c 8a5a 28be cfa5 99bd df10 d1be
00000210: b12e 263f 7e30 8d3e 366b 39be b813 563e
00000220: 0112 cb3e 5740 5bbe c52d 8b3e 197c 19bf
00000230: 0b87 3e3f 5f2d 3cbe 0ad5 a6be 88ef 0abf
00000240: 992d 173e 3327 05be 809e f5be 7dcd 9cbc
00000250: a894 e6be a2d4 d63e 9b00 3a3f 961e c6be
00000260: fba9 c1ba 4b73 3ebf 482d 3cbe 36e6 013f
00000270: 51c0 223f 89a1 c53e eec2 203f 2d28 a7be
00000280: 97af b7be 99ba c23d 56d8 c1be 325b e53c
00000290: 3f2e 8f3d 32b5 223e 55b6 753d e429 febd
000002a0: 35d2 153e e781 aabe f845 503e 53b8 aa3e
000002b0: e7c6 f33d be20 8cbc 4971 a33d 960c da3d
000002c0: a664 ee3e ba09 393e bf7a 5cbe 933f 1d3e
000002d0: 11ad 77be ee8b 8ebe 81c5 ca3d 9617 e6bd
000002e0: b591 2ebd 63b1 99be a8d2 c53d 0b7f 23bd
000002f0: 95a9 613e cb2b 533d 5782 f73d 3971 f63b
00000300: c96d bebc 5723 1dbd 92ce 13bd 1cab cabc
00000310: 9e25 a93d f46f 2ebe 5c0a 2bbd 4039 4d3c
00000320: 00f2 893d 6b03 5bbc bb9f c7bb 0ee4 82bd
00000330: 7fb5 d33d 6f63 51bd dba9 2dbe 2a87 e5bc
00000340: bec5 98bd e968 35be 99a0 c73d 396f c13c
00000350: e962 47bc aaa2 62bc 6043 9fbd f2c3 cd3d
00000360: fdea 46be 9303 c13d 4566 c0b9 13ef 923d
00000370: 20a8 3d3e 50c3 ab3b a638 31be 41e7 cdbc
00000380: e72b aa3e 4012 733e 3946 033e 2e79 bbbd
00000390: 3ec0 babb 59ea fd3e 8619 ab3e b585 2a3d
000003a0: c638 efbd c7c4 73be d58f 91be 2be5 743c
000003b0: 444a 2cbd de29 33bd 45ad c53d 29ec a93d
000003c0: 8901 b4be 9efe ddbd 02c0 623e 8ce0 3abe
000003d0: 4dab 54be 43f2 aabd dbc3 8ebe 679c 41bd
000003e0: 6e50 e4bd e1ce b93d eae0 c83e e517 8fbe
000003f0: 41b9 44be d0ec 943b c8c9 07bf 3903 d2bd

context_transformer_0/kq_shared_bottleneck/norm/mul;context_transformer_0/kq_shared_bottleneck/norm/add;context_transformer_0/attention/key/einsum/Einsum;context_transformer_0/attention/key/add;context_transformer_0/attention/value/einsum/Einsum;context_transformer_0/attention/key/add/ReadVariableOp/resource f4 [32]
0.041933194 0.044623077 0.066686034 0.04726899 -0.05198857 -0.04885716 0.060434513 0.036028374
0.11535097 0.11712635 -0.12952647 0.12290713 -0.10328716 -0.107307725 -0.091207825 0.114254355
-0.008588852 -0.03621733 -0.08901198 0.070871755 0.021551827 0.03745317 0.06775033 0.11701798
-0.11854819 -0.13363351 -0.067920476 0.12531891 -0.12993382 0.09916786 -0.07188897 0.0065944684
00000000: 24c2 2b3d b0c6 363d b092 883d 219d 413d
00000010: f7f1 54bd 721e 48bd 2e8a 773d 7d92 133d
00000020: 213d ec3d f1df ef3d 96a2 04be bcb6 fb3d
00000030: 3888 d3bd 27c4 dbbd 2bcb babd 30fe e93d
00000040: 42b8 0cbc 9f58 14bd ea4b b6bd 3625 913d
00000050: 758d b03c 7f68 193d afc0 8a3d 1fa7 ef3d
00000060: 65c9 f2bd 39d7 08be e419 8bbd 9a53 003e
00000070: 5f0d 05be 8518 cb3d 863a 93bd 6916 d83b

context_transformer_0/kq_shared_bottleneck/norm/mul;context_transformer_0/kq_shared_bottleneck/norm/add;context_transformer_0/attention/key/einsum/Einsum;context_transformer_0/attention/key/add;context_transformer_0/attention/value/einsum/Einsum;context_transformer_0/attention/key/add/ReadVariableOp/resource1 f4 [32, 32]
-0.0748887 0.09843068 0.011583736 -0.086668536 -0.053750396 -0.020528398 0.008299285 -0.06715328
-0.11053425 -0.10736514 0.13532953 0.115423284 0.14194165 0.20613992 0.1251863 -0.17638011
0.08842898 -0.15205401 0.0408124 0.09364444 -0.09966202 0.0032147048 0.10544501 0.119011514
0.10407575 0.034573216 -0.09038443 0.030792093 -0.23850165 0.06138945 0.15632232 0.13658567
0.14202155 -0.0050126496 0.07926853 0.2028903 0.15210629 0.106321976 0.057924524 -0.024990536
0.05113962 0.12969749 0.036634274 -0.03129831 -0.037729483 -0.12692773 -0.016061718 0.102702186
0.022164881 -0.1699998 -0.14739706 -0.091999345 0.3178476 -0.29637736 -0.3032809 0.058387578
0.10216846 0.038521376 0.14323919 -0.0031154102 0.3667362 -0.2877242 0.04844871 -0.08536779
-0.093534686 0.0986144 0.015793405 -0.04742299 -0.052515887 -0.030512322 -0.008652333 -0.04759375
-0.15390286 -0.11578989 0.1538442 0.1112022 0.17627704 0.17474219 0.13077986 -0.1998792
0.101493314 -0.18320742 0.0771321 0.11327608 -0.010013035 -0.0306129 0.07892497 0.1114159
0.14149666 0.045848146 -0.10468934 0.06434732 -0.2272395 0.026415624 0.18334867 0.10918137
-0.07174678 0.07326593 -0.015220804 -0.08926137 -0.037871726 -0.009952659 0.00046646272 -0.008917382
-0.11546364 -0.10574759 0.09754726 0.08344454 0.12326873 0.15916003 0.096833296 -0.15267119
0.070259705 -0.12171557 0.07615963 0.103847936 -0.057391863 0.027886987 0.11008283 0.122472696
0.105111465 0.02764214 -0.13188513 0.054384492 -0.23862243 0.07808452 0.14512844 0.119491
0.06509422 -0.12295339 -0.04187521 0.05457555 0.056861416 0.081033655 0.0034203078 0.060262572
0.13782604 0.13485809 -0.13071145 -0.12622117 -0.19396015 -0.23760223 -0.16485614 0.21153593
-0.104244515 0.16985624 -0.11203327 -0.10464724 0.028493527 0.068994954 -0.08388115 -0.13044915
-0.13254315 -0.07032166 0.12432032 -0.055009488 0.23055173 -0.046577152 -0.21636616 -0.118850335
0.06574615 -0.08450095 0.00839203 0.07615752 0.033801906 0.029507913 -0.009646675 0.041926917
0.14166206 0.09802994 -0.12816866 -0.09630469 -0.13035825 -0.17009717 -0.12241399 0.17107613
-0.10902856 0.1705835 -0.046882533 -0.12525646 0.095442295 0.08188956 -0.029400066 -0.09901225
-0.10480096 -0.057830963 0.12788196 -0.0039861216 0.17838489 -0.024388557 -0.20401813 -0.14147697
-0.07469627 0.11181336 -0.007899369 -0.08030541 -0.04469912 -0.040593795 -0.04368239 -0.08394237
-0.13385597 -0.115525864 0.1633375 0.111039005 0.19173338 0.20158261 0.11438246 -0.1888169
0.11662321 -0.22473532 0.10107598 0.09328797 -0.014042361 -0.069754705 0.043559857 0.14523214
0.11606443 0.059458274 -0.12515488 0.03459177 -0.18540072 0.03171286 0.2135023 0.15484747
-0.09870235 0.077438295 -0.057543967 -0.08815501 -0.05424841 -0.05239042 -0.006712589 -0.011030802
-0.102447584 -0.090217024 0.12606616 0.07146141 0.123245396 0.16674757 0.110466234 -0.11708803
0.04745426 -0.101155825 0.08255775 0.07652269 -0.14636016 0.032856572 0.14322533 0.12531883
0.069463514 0.0025015373 -0.10044631 0.06459082 -0.19160871 0.08244112 0.09628713 0.093742654
00000000: 3f5f 99bd 0696 c93d b6c9 3d3c 467f b1bd
00000010: 6029 5cbd 2c2b a8bc b9f9 073c a987 89bd
00000020: c85f e2bd 41e2 dbbd d393 0a3e 0b63 ec3d
00000030: 2759 113e 5816 533e d630 003e fd9c 34be
00000040: 411a b53d 0cb4 1bbe e72a 273d a8c8 bf3d
00000050: 9a1b ccbd ccad 523b 8ef3 d73d 4fbc f33d
00000060: ab25 d53d a59c 0d3d 791b b9bd b33f fc3c
00000070: c739 74be 8173 7b3d f512 203e 1ddd 0b3e
00000080: 196e 113e 2741 a4bb 8a57 a23d 7ac2 4f3e
00000090: c0c1 1b3e 56bf d93d 4442 6d3d f4b8 ccbc
000000a0: c777 513d 6bcf 043e d20d 163d a832 00bd
000000b0: 3b8a 1abd 58f9 01be dd93 83bc 8655 d23d
000000c0: 2093 b53c 6d14 2ebe 41ef 16be 276a bcbd
000000d0: ecbc a23e c6be 97be a247 9bbe d027 6f3d
000000e0: b33d d13d 97c8 1d3d 4bad 123e e92b 4cbb
000000f0: d9c4 bb3e 9650 93be 2872 463d 4fd5 aebd
00000100: 1d8f bfbd 59f6 c93d 2c61 813c 9c3e 42bd
00000110: e61a 57bd faf4 f9bc 84c2 0dbc aaf1 42bd
00000120: b698 1dbe 4023 edbd 5589 1d3e fbbd e33d
00000130: f881 343e 9eef 323e 28eb 053e 22ad 4cbe
00000140: badb cf3d ba9a 3bbe 6ff7 9d3d 4afd e73d
00000150: b60d 24bc e8c7 fabc 6aa3 a13d 052e e43d
00000160: 80e4 103e 44cb 3b3d 5d67 d6bd 87c8 833d
00000170: 79b1 68be 9465 d83c c1bf 3b3e 7b9a df3d
00000180: faef 92bd 730c 963d ae60 79bc aace b6bd
00000190: 621f 1bbd 7a10 23bc 918f f439 361a 12bc
000001a0: 3378 ecbd 3192 d8bd dcc6 c73d f9e4 aa3d
000001b0: 5174 fc3d d9fa 223e 8950 c63d d655 1cbe
000001c0: 52e4 8f3d 0346 f9bd 95f9 9b3d 3aae d43d
000001d0: bb13 6bbd 4073 e43c 1b73 e13d f7d2 fa3d
000001e0: ae44 d73d c571 e23c e50c 07be 46c2 5e3d
000001f0: 7059 74be c7ea 9f3d 8d9c 143e b3b7 f43d
00000200: 1e50 853d fdce fbbd 5785 2bbd 9d8a 5f3d
00000210: 84e7 683d f9f4 a53d 3e27 603b e3d5 763d
00000220: 4522 0d3e 3d18 0a3e 39d9 05be 1f40 01be
00000230: 7d9d 46be 004e 73be 0cd0 28be e09c 583e
00000240: 267e d5bd cbee 2d3e b371 e5bd 4b51 d6bd
00000250: 426b e93c 3a4d 8d3d e1c9 abbd 7694 05be
00000260: 64b9 07be cd04 90bd a79b fe3d a151 61bd
00000270: c115 6c3e afc7 3ebd 178f 5dbe ce67 f3bd
00000280: eba5 863d d60e adbd ba7e 093c 79f8 9b3d
00000290: de73 0a3d 94ba f13c 160d 1ebc 8fbb 2b3d
000002a0: dc0f 113e ecc3 c83d a53e 03be 653b c5bd
000002b0: a27c 05be f42d 2ebe 30b4 fabd 952e 2f3e
000002c0: 5e4a dfbd 71ad 2e3e e607 40bd 3b43 00be
000002d0: 4077 c33d b7b5 a73d 68d8 f0bc efc6 cabd
000002e0: e3a1 d6bd 29e0 6cbd 7df3 023e 039e 82bb
000002f0: 87aa 363e 83ca c7bc 21ea 50be 57df 10be
00000300: 5cfa 98bd 67fe e43d 5b6c 01bc 2a77 a4bd
00000310: 6d16 37bd ae45 26bd 4eec 32bd fae9 abbd
00000320: 8a11 09be d398 ecbd f241 273e 6b68 e33d
00000330: c155 443e ac6b 4e3e 5a41 ea3d 3859 41be
00000340: 26d8 ee3d 0421 66be ec00 cf3d c30d bf3d
00000350: ee11 66bc 8edb 8ebd d26b 323d bcb7 143e
00000360: 30b3 ed3d 858a 733d 9a28 00be 1ab0 0d3d
00000370: b0d9 3dbe 58e5 013d 59a0 5a3e 5690 1e3e
00000380: 7524 cabd f897 9e3d 39b3 6bbd 9d8a b4bd
00000390: 9533 5ebd 5697 56bd 47f5 dbbb 89ba 34bc
000003a0: 0ad0 d1bd b4c3 b8bd 7d17 013e 5c5a 923d
000003b0: 1568 fc3d e0bf 2a3e 1f3c e23d d9cb efbd
000003c0: 665f 423d c92a cfbd 0a14 a93d eeb7 9c3d
000003d0: 70df 15be 9d94 063d a9a9 123e 9453 003e
000003e0: e342 8e3d d5f0 233b ccb6 cdbd 3148 843d
000003f0: 1335 44be e4d6 a83d 3032 c53d 26fc bf3d

context_transformer_0/kq_shared_bottleneck/norm/mul;context_transformer_0/kq_shared_bottleneck/norm/add;context_transformer_0/attention/query/einsum/Einsum;context_transformer_0/attention/query/add;context_transformer_0/attention/value/einsum/Einsum;context_transformer_0/attention/query/add/ReadVariableOp/resource;context_transformer_0/attention/Mul;context_transformer_0/attention/Mul/y f4 [32]
0.036506385 0.113549344 0.05919702 0.030480029 -0.06607539 -0.043904226 0.06586853 0.01268642
-0.09344715 -0.09810188 0.09329248 -0.09759315 0.10651832 0.08980777 0.304475 -0.10522969
-0.08748277 -0.10431369 0.032064267 -0.028671365 -0.05739538 0.105969295 0.13010041 -0.043943748
-0.10864431 -0.13589615 -0.044682253 0.11618427 -0.12673287 0.0895366 -0.059360832 -0.10211117
00000000: b887 153d 8f8c e83d 9378 723d 41b1 f93c
00000010: 8952 87bd ebd4 33bd 14e6 863d b4da 4f3c
00000020: 3861 bfbd a3e9 c8bd 2110 bf3d ebde c7bd
00000030: 4726 da3d 23ed b73d 26e4 9b3e aa82 d7bd
00000040: 2b2a b3bd 6aa2 d5bd d255 033d 36e0 eabc
00000050: 6b17 6bbd 6e06 d93d 0b39 053e 5cfe 33bd
00000060: e880 debd 5c28 0bbe bd04 37bd 05f2 ed3d
00000070: 43c6 01be f75e b73d 5824 73bd a91f d1bd

context_transformer_0/kq_shared_bottleneck/norm/mul;context_transformer_0/kq_shared_bottleneck/norm/add;context_transformer_0/attention/query/einsum/Einsum;context_transformer_0/attention/query/add;context_transformer_0/attention/value/einsum/Einsum;context_transformer_0/attention/query/add/ReadVariableOp/resource;context_transformer_0/attention/Mul;context_transformer_0/attention/Mul/y1 f4 [32, 32]
0.052050475 0.013037189 -0.028232172 -0.08426683 -0.011291291 -0.017120715 -0.076448545 -2.737154e-06
0.004188635 0.02224963 -0.007476421 0.012332244 -0.01584669 -0.0003138365 -0.0036353718 0.018368542
-0.008263357 0.011001328 0.0030438679 -0.002933125 0.09254505 -0.032950383 -0.07565427 -0.081881
-0.004036596 0.006193321 0.008205558 -0.0023124884 0.13056159 0.0011964543 -0.017131852 -0.014929966
-0.051909454 0.05517505 -0.022235695 -0.010395908 -0.08413338 0.104225166 0.08274737 0.09387368
0.0062103146 -0.014232095 -0.030384716 -0.06426864 -0.020893212 -0.038223386 -0.011001801 0.01764578
-0.03416843 -0.04876992 0.013668854 -0.011196148 -0.08501505 0.08736949 0.09721133 0.040573675
0.014584079 -0.051181074 0.044899262 0.021474307 -0.11610386 -0.10013973 -0.05647949 -0.023639651
0.05638594 0.031522613 -0.01541012 -0.081567205 -0.019652031 0.0019100261 -0.07059961 0.0005957562
0.004364339 0.012054288 -0.017320292 -0.00276344 -0.022697844 -0.0031517444 -0.002609734 0.015115836
-0.0071600825 -0.0014768265 0.0032413527 -0.0033169058 0.08735843 -0.016795615 -0.08158176 -0.097056985
0.0038420055 -0.002495051 0.022266945 -0.0041041607 0.12726653 -0.0109744845 -0.013609064 -0.020033276
0.048553124 0.025049832 -0.018346736 -0.061001282 0.00029680054 -0.013220013 -0.06270151 -0.0072752456
0.0090701105 0.010894304 0.009639303 0.006807638 -0.0072280066 -0.00071222626 -0.0049109934 0.0019903982
-0.012478987 0.0016447825 0.0033954852 0.0050368053 0.09532946 -0.03238186 -0.077578835 -0.08464613
-0.0032109248 0.009787117 0.014485614 -0.0021749258 0.12321215 -0.0037399938 -0.01680535 -0.009148638
-0.06520738 -0.043777432 0.012356847 0.09374622 0.01060674 -0.003982734 0.07725772 0.014403383
-0.011473106 -0.005438091 0.015280837 -0.0008208634 0.008550461 0.012494577 0.01837677 -0.021024631
0.020252408 0.0022808276 -0.011568507 -0.0053287945 -0.09232044 0.03132521 0.07687107 0.10197149
-0.007870077 -0.007516128 -0.025866484 0.008360302 -0.14577445 -0.0023531297 0.03528224 -0.0019791827
-0.050651323 -0.029962953 0.029983222 0.09551387 0.008750977 -0.0044108625 0.07325692 -0.003063805
-0.015145347 -0.022848206 0.0084983865 0.0014542586 0.0057647857 0.013444924 0.0143569615 -0.0225741
-0.0015456886 -0.008470406 -0.0035730829 0.010486617 -0.08063589 0.010339461 0.056095764 0.10501273
0.0049660816 -0.0076486785 -0.019543046 0.008757228 -0.1080761 0.00767837 0.01983345 0.0020322148
0.06900346 0.041424226 -0.016993688 -0.09281554 -0.021679362 -0.010090058 -0.06538321 0.012371368
0.004422631 0.0047117304 -0.0015572063 -0.0017283993 -0.023023939 -0.0045993784 -0.0044777696 0.024869991
-0.0036214394 0.006824172 0.015432852 -0.01167795 0.0944087 -0.014248415 -0.0577227 -0.09892164
-0.00078977144 0.007853808 0.028122334 -0.012884596 0.13246983 -0.00031211053 -0.03139002 -0.007638289
0.032559764 0.015620384 -0.022255598 -0.06240939 0.0029938272 -0.028541697 -0.063608035 -0.011201507
0.0035539686 0.018117607 0.0015388085 0.0057321372 -0.00037383457 0.005437442 -0.017338634 -0.0012021979
0.004266133 0.0043522306 0.008270176 -0.0010618899 0.08577344 -0.02827849 -0.07103328 -0.08685158
-0.01417096 0.0044030203 0.0016096121 -0.0051109833 0.11927787 0.0024934758 0.0020187136 -0.01066879
00000000: e132 553d ef99 553c 2847 e7bc 1694 acbd
00000010: 1bff 38bc be40 8cbc 0e91 9cbd f3af 37b6
00000020: d140 893b db44 b63c c4fc f4bb 2e0d 4a3c
00000030: ebd0 81bc 6c8a a4b9 6b3f 6ebb a079 963c
00000040: 0863 07bc ea3e 343c a17b 473b ac39 40bb
00000050: 4288 bd3d fbf6 06bd a0f0 9abd 3ab1 a7bd
00000060: 6c45 84bb 58f1 ca3b 9b70 063c 1e8d 17bb
00000070: f0b1 053e 58d2 9c3a 1958 8cbc d19c 74bc
00000080: 029f 54bd 3cff 613d a227 b6bc 9953 2abc
00000090: 1f4e acbd 0174 d53d 7477 a93d d840 c03d
000000a0: e57f cb3b bc2d 69bc 5ee9 f8bc 479f 83bd
000000b0: 3e28 abbc 2090 1cbd e640 34bc e28d 903c
000000c0: 32f4 0bbd f8c2 47bd 54f3 5f3c 0c70 37bc
000000d0: 5f1c aebd c6ee b23d bc16 c73d 9530 263d
000000e0: 10f2 6e3c 3fa3 51bd 4ae8 373d e3ea af3c
000000f0: dcc7 edbd 0f16 cdbd 0a57 67bd f1a7 c1bc
00000100: f2f4 663d db1d 013d ba7a 7cbc b50c a7bd
00000110: 4cfd a0bc d759 fa3a 8796 90bd 862c 1c3a
00000120: bb02 8f3b 597f 453c 49e3 8dbc d41a 35bb
00000130: d4f0 b9bc 7f8d 4ebb 1208 2bbb 69a8 773c
00000140: 209f eabb 1392 c1ba e06c 543b 7260 59bb
00000150: fae8 b23d f596 89bc 5614 a7bd d0c5 c6bd
00000160: 28ca 7b3b 0284 23bb 2b69 b63c 327c 86bb
00000170: 2852 023e 53ce 33bc 8df8 5ebc d31c a4bc
00000180: a4df 463d 4e35 cd3c e54b 96bc 7bdc 79bd
00000190: e59b 9b39 c198 58bc a669 80bd 2f65 eebb
000001a0: cd9a 143c 067e 323c 2bee 1d3c 9b12 df3b
000001b0: ead8 ecbb b2b4 3aba 66ec a0bb 5771 023b
000001c0: aa74 4cbc be95 d73a ca86 5e3b c90b a53b
000001d0: 183c c33d d7a2 04bd a7e1 9ebd f35a adbd
000001e0: 616e 52bb 255a 203c 1255 6d3c 3389 0ebb
000001f0: a756 fc3d af1a 75bb 60ab 89bc 2be4 15bc
00000200: 728b 85bd f74f 33bd 5f74 4a3c 05fe bf3d
00000210: e4c7 2d3c 9881 82bb 4c39 9e3d 2bfc 6b3c
00000220: b2f9 3bbc 0332 b2bb 7a5c 7a3c 362f 57ba
00000230: 3c17 0c3c 0eb6 4c3c e18a 963c d93b acbc
00000240: 61e8 a53c f079 153b d689 3dbc 2b9d aebb
00000250: 8012 bdbd dd4e 003d 946e 9d3d 6ed6 d03d
00000260: 7ff1 00bc da49 f6bb f3e5 d3bc a6f9 083c
00000270: e645 15be f736 1abb 1c84 103d 2db5 01bb
00000280: c377 4fbd de74 f5bc 609f f53c c79c c33d
00000290: 4260 0f3c ff88 90bb b907 963d 1eca 48bb
000002a0: 3124 78bc 292c bbbc d13c 0b3c d29c be3a
000002b0: 87e6 bc3b 1948 5c3c 7639 6b3c 52ed b8bc
000002c0: b498 caba 75c7 0abc 622a 6abb 0fd0 2b3c
000002d0: 6e24 a5bd d866 293c acc4 653d ea10 d73d
000002e0: 83ba a23b c4a1 fabb bd18 a0bc 7a7a 0f3c
000002f0: 0157 ddbd d69a fb3b c279 a23c e82e 053b
00000300: b051 8d3d 73ac 293d 5936 8bbc 1316 bebd
00000310: eb98 b1bc c550 25bc a2e7 85bd 47b1 4a3c
00000320: b8eb 903b dc64 9a3b 2c1b ccba 758b e2ba
00000330: b39c bcbc 62b6 96bb 41ba 92bb 27bc cb3c
00000340: ac55 6dbb 4e9d df3b 13da 7c3c df54 3fbc
00000350: 5959 c13d 2f72 69bc a36e 6cbd 6e97 cabd
00000360: aa08 4fba 42ad 003c cf60 e63c ea19 53bc
00000370: 2ca6 073e c4a2 a3b9 d292 00bd 9d4a fabb
00000380: 635d 053d a4ec 7f3c 5f51 b6bc fda0 7fbd
00000390: 1634 443b 47d0 e9bc ee44 82bd 8786 37bc
000003a0: b3e9 683b 606b 943c d8b1 c93a a7d4 bb3b
000003b0: 3aff c3b9 922c b23b c009 8ebc 1193 9dba
000003c0: ebca 8b3b 289d 8e3b a27f 073c 1d2f 8bba
000003d0: fca9 af3d 4ba8 e7bc e579 91bd 3edf b1bd
000003e0: 502d 68bc 3647 903b 9ff9 d23a 097a a7bb
000003f0: f547 f43d 9569 233b 654c 043b 26cc 2ebc

context_transformer_0/ffn_layer_0/intermediate_dense/einsum/Einsum;context_transformer_0/ffn_layer_0/intermediate_dense/Relu;context_transformer_0/ffn_layer_0/intermediate_dense/add f4 [32]
-0.28392178 -0.05130321 -0.34784162 -0.26321396 -0.09884759 -0.26351863 -0.1266118 -0.27147666
-0.26972687 -0.3911377 -0.2282811 -0.12560503 -0.21856609 -0.25180393 -0.07779343 -0.347119
-0.26961038 -0.3397299 -0.246387 -0.17415273 -0.2075288 -0.3115162 -0.20948763 -0.38411927
-0.2372124 -0.36046687 -0.24962705 -0.2591981 -0.5490415 -0.31800714 -0.3491879 -0.23367694
00000000: 325e 91be 5123 52bd 4c18 b2be fbc3 86be
00000010: 9b70 cabd eaeb 86be 86a6 01be fdfe 8abe
00000020: a419 8abe 3343 c8be 85c2 69be 9b9e 00be
00000030: cacf 5fbe 72ec 80be 2952 9fbd 95b9 b1be
00000040: 5f0a 8abe 14f1 adbe e04c 7cbe 1855 32be
00000050: 6e82 54be 0d7f 9fbe ed83 56be 48ab c4be
00000060: cfe7 72be 1d8f b8be 3c9e 7fbe 9db5 84be
00000070: fc8d 0cbf d5d1 a2be c2c8 b2be 0249 6fbe

context_transformer_0/attention/norm/mul;context_transformer_0/attention/norm/add;context_transformer_0/ffn_layer_0/intermediate_dense/einsum/Einsum;context_transformer_0/ffn_layer_0/intermediate_dense/Relu;context_transformer_0/ffn_layer_0/intermediate_dense/add f4 [32, 32]
-0.018805737 -0.3807952 0.04477302 0.21818349 -0.4165892 -0.043344587 0.4979413 0.20265453
-0.27987498 -0.17708261 -0.13150989 0.26991725 0.2486267 -0.36445475 0.28478768 0.026127674
-0.25193486 0.18051837 0.23528701 -0.21225333 -0.11910287 0.110178724 0.14909667 -0.20935182
0.11637654 -0.37755513 0.21820456 -0.27006665 -0.025449203 -0.17561625 -0.15705287 0.032193378
0.21981159 -0.038437806 0.0026962946 -0.34880766 -0.120524906 0.22273797 -0.026283104 -0.10168368
0.45119432 -0.21765769 -0.100190856 -0.03396996 -0.016957797 0.13216756 -0.36911055 -0.23731482
-0.16057688 -0.09395815 0.10555403 -0.18434018 0.020765588 0.31212038 -0.025950486 0.027079815
-0.40156445 0.088369556 0.1685763 -0.36324438 0.011266426 -0.1062129 0.11264155 0.04434626
-0.07280731 -0.04085681 -0.36357844 -0.2216731 0.2529292 0.10739381 -0.06337991 0.07035807
0.006342089 -0.07347744 0.10674556 0.15773559 -0.2813899 0.14013383 -0.078273356 0.14078158
-0.269815 -0.112123616 -0.030154185 -0.1616424 0.05343381 -0.079226844 0.3121705 -0.044348292
-0.50532436 -0.024030097 -0.30012155 -0.46048146 0.005360681 -0.07562311 -0.023790704 -0.12625992
0.2635885 -0.058673434 0.00824273 -0.38962892 -0.4899856 -0.19757548 -0.054866448 -0.07097094
0.032599535 0.10087759 -0.071180284 -0.043962266 -0.35787466 0.113048576 -0.23865819 -0.22759952
0.22073494 0.12090318 0.015948758 0.1187699 -0.05607879 0.16779532 0.05181784 -0.32270813
0.100160696 0.09576584 0.31026563 -0.1923867 -0.13258396 -0.019811274 0.16662663 -0.4357118
-0.0035562192 -0.12905602 -0.019946383 -0.15360771 -0.26297066 -0.014589971 -0.016287325 -0.103768826
-0.005075916 0.1777904 -0.1496653 -0.09418077 -0.25765002 0.07844787 -0.04569506 0.03938848
-0.10527641 0.2380092 -0.03727626 0.12127816 -0.10614507 0.10396563 0.054427728 -0.09610807
0.07897454 -0.07251185 0.22423606 -0.11058919 -0.13829452 0.011752649 0.15740238 -0.2924305
0.29434082 -0.18289489 0.030702682 -0.41227654 0.13436505 -0.18620606 0.16471714 -0.1570594
0.1706684 -0.2735341 -0.0145103345 -0.15271467 0.07419491 -0.19515222 0.18812834 0.03175496
0.289873 0.041300084 0.12726422 -0.31763384 0.095761746 0.20157969 0.16071144 -0.18800366
0.771118 -0.039378613 -0.09241643 -0.15371457 -0.084588066 -0.1391102 -0.26675758 -0.20596322
-0.07363141 -0.054381344 0.10646873 0.2632352 0.00052666495 -0.02382663 0.0606216 -0.33830568
0.057091974 -0.14658977 -0.26496065 0.058173478 -0.027910164 -0.035349723 0.06773828 -0.47114664
-0.14163378 0.2375547 0.24483895 -0.009254131 -0.06758673 0.083277486 -0.09364819 -0.17154737
0.1788018 0.11943623 0.025549319 -0.07050393 -0.17721227 -0.5300719 0.09589871 0.044280346
-0.15265556 -0.07715404 0.019036919 -0.21540675 -0.07768708 -0.03064433 0.10511163 0.15563324
-0.037043773 0.17969635 0.0034294736 0.28595635 0.2177734 -0.06339156 -0.28301278 -0.49194843
-0.1246247 -0.0417478 0.30786332 -0.034995884 -0.003186207 0.19269073 0.20660125 -0.12691082
-0.1528177 -0.12893553 0.09610983 -0.16178095 0.017928306 -0.33696866 0.027629338 -0.26499406
00000000: 7d0e 9abc 97f7 c2be ea63 373d 7e6b 5f3e
00000010: 2e4b d5be 188a 31bd 29f2 fe3e ab84 4f3e
00000020: c64b 8fbe 2555 35be 87aa 06be 9832 8a3e
00000030: ff97 7e3e d099 babe b1cf 913e b409 d63c
00000040: 9bfd 80be cfd9 383e 14ef 703e f058 59be
00000050: 35ec f3bd 62a5 e13d ccac 183e 5360 56be
00000060: d356 ee3d e84e c1be 0471 5f3e 2d46 8abe
00000070: d97a d0bc bfd4 33be 78d2 20be 34dd 033d
00000080: 4a16 613e f670 1dbd 51b4 303b eb96 b2be
00000090: c3d5 f6bd 6c15 643e aa4f d7bc 893f d0bd
000000a0: f102 e73e a8e1 5ebe dd30 cdbd 1624 0bbd
000000b0: 14eb 8abc ef56 073e 0ffc bcbe a802 73be
000000c0: 446e 24be 216d c0bd b62c d83d acc3 3cbe
000000d0: 981c aa3c 3ece 9f3e 1d96 d4bc 7dd6 dd3c
000000e0: db99 cdbe 19fb b43d 449f 2c3e 2bfb b9be
000000f0: d196 383c 2686 d9bd 9db0 e63d 6da4 353d
00000100: 001c 95bd 7859 27bd f426 babe 46fe 62be
00000110: f07f 813e 49f1 db3d 54cd 81bd e417 903d
00000120: 4cd1 cf3b 577b 96bd 6b9d da3d 7085 213e
00000130: 5612 90be 3e7f 0f3e c84d a0bd 0c29 103e
00000140: 3125 8abe 11a1 e5bd e905 f7bc 9685 25be
00000150: 69dd 5a3d af41 a2bd d0d4 9f3e 8ea6 35bd
00000160: f05c 01bf c4da c4bc 88a9 99be 3ac4 ebbe
00000170: a7a8 af3b 4ae0 9abd b9e4 c2bc 484a 01be
00000180: 12f5 863e 8e53 70bd 840c 073c 717d c7be
00000190: 64df fabe 3a51 4abe a4bb 60bd 3659 91bd
000001a0: 1787 053d e998 ce3d f8c6 91bd c711 34bd
000001b0: 593b b7be 0386 e73d d062 74be d90f 69be
000001c0: 5708 623e 169c f73d f8a6 823c a23d f33d
000001d0: e0b2 65bd 89d2 2b3e f23e 543d 003a a5be
000001e0: 0d21 cd3d e120 c43d 23db 9e3e 0501 45be
000001f0: 17c4 07be 414b a2bc 2ca0 2a3e 9e15 dfbe
00000200: 750f 69bb 4327 04be 9966 a3bc 574b 1dbe
00000210: 17a4 86be c60a 6fbc ff6c 85bc c084 d4bd
00000220: df53 a6bb b00e 363e dc41 19be d9e1 c0bd
00000230: b4ea 83be 47a9 a03d be2a 3bbd d155 213d
00000240: 299b d7bd afb8 733e feae 18bd af60 f83d
00000250: 9662 d9bd efeb d43d 9cef 5e3d 4fd4 c4bd
00000260: 67bd a13d 1881 94bd 239e 653e 967c e2bd
00000270: 149d 0dbe 2f8e 403c 172e 213e 73b9 95be
00000280: d7b3 963e cc48 3bbe 3184 fb3c e915 d3be
00000290: fe96 093e cdac 3ebe 9cab 283e 2ed4 20be
000002a0: b2c3 2e3e a90c 8cbe c1bc 6dbc 3c61 1cbe
000002b0: 80f3 973d fcd5 47be b7a4 403e 7d11 023d
000002c0: 3c6a 943e 472a 293d 8d51 023e e7a0 a2be
000002d0: bc1e c43d e86a 4e3e 8a91 243e 0884 40be
000002e0: fd67 453f 784b 21bd d344 bdbd 5a67 1dbe
000002f0: 823c adbd e772 0ebe 7394 88be 06e8 52be
00000300: 11cc 96bd f9be 5ebd 470c da3d c4c6 863e
00000310: e30f 0a3a 1130 c3bc 5b4e 783d 6736 adbe
00000320: 46d9 693d a11b 16be eca8 87be 5047 6e3d
00000330: dba3 e4bc dfca 10bd 5eba 8a3d 223a f1be
00000340: 7208 11be 8a41 733e 10b7 7a3e a39e 17bc
00000350: e96a 8abd 638d aa3d 9fca bfbd 1daa 2fbe
00000360: d217 373e fb9a f43d ce4c d13c 5d64 90bd
00000370: 2277 35be cbb2 07bf 8b66 c43d 4f5f 353d
00000380: bd51 1cbe f002 9ebd 50f3 9b3c 9693 5cbe
00000390: 671a 9fbd d109 fbbc c444 d73d 525e 1f3e
000003a0: 36bb 17bd 5202 383e 05c1 603b df68 923e
000003b0: fdff 5e3e 6fd3 81bd 0de7 90be aae0 fbbe
000003c0: 3c3b ffbd beff 2abd 43a0 9d3e d857 0fbd
000003d0: afcf 50bb b850 453e 478f 533e e9f4 01be
000003e0: 3e7c 1cbe ad07 04be 3bd5 c43d e8a9 25be
000003f0: 62de 923c 2887 acbe ec56 e23c 4dad 87be

context_transformer_0/ffn_layer_1/intermediate_dense/einsum/Einsum;context_transformer_0/ffn_layer_1/intermediate_dense/Relu;context_transformer_0/ffn_layer_1/intermediate_dense/add f4 [32]
-0.29269698 0.123544216 -0.12205506 -0.14370713 -0.025267607 -0.19333641 -0.40716243 -0.09457805
0.0030562023 -0.47968638 -0.16627423 -0.031411342 -0.23103432 -0.083226785 -0.14239661 0.06505003
-0.07565228 -0.25579947 -0.020647522 -0.46505225 -0.15632428 -0.107033655 -0.3503489 -0.26861563
-0.035702597 -0.2132444 -0.11139991 -0.12553404 -0.3998814 -0.06631992 -0.084722884 -0.070727825
00000000: 61dc 95be c004 fd3d 01f8 f9bd f627 13be
00000010: 03fe cebc fbf9 45be 9877 d0be 23b2 c1bd
00000020: 914a 483b 7499 f5be cb43 2abe 2ea9 00bd
00000030: 4394 6cbe ce72 aabd 6bd0 11be f338 853d
00000040: 95ef 9abd 26f8 82be fe24 a9bc 541b eebe
00000050: 7913 20be 7634 dbbd ee60 b3be fd87 89be
00000060: e33c 12bd bd5c 5abe a325 e4bd ff8b 00be
00000070: 41bd ccbe bdd2 87bd 3183 adbd c0d9 90bd

context_transformer_0/ffn_layer_0/norm/mul;context_transformer_0/ffn_layer_0/norm/add;context_transformer_0/ffn_layer_1/intermediate_dense/einsum/Einsum;context_transformer_0/ffn_layer_1/intermediate_dense/Relu;context_transformer_0/ffn_layer_1/intermediate_dense/add f4 [32, 32]
-0.31584454 0.01592674 0.044900205 -0.065866664 0.28795162 -0.2734975 -0.010667886 0.12788035
-0.08153124 0.09752839 -0.026505047 0.27990675 0.18233287 0.09589156 -0.2482571 0.26067048
-0.2000975 0.09753426 -0.15742467 -0.37450847 -0.064497076 0.32060987 -0.08077803 0.15908386
-0.7012434 0.01971212 0.056594927 -0.37405747 -0.12297691 -0.07057758 0.07934364 -0.21699923
-0.29458 0.004495427 0.14547728 -0.066390276 -0.20075394 -0.16194682 0.028150378 0.015082191
-0.098018065 -0.09892467 -0.4464077 -0.14431727 -0.1342034 0.06485782 0.019064026 0.09288707
-0.25279665 0.39945823 -0.116073936 0.015335633 -0.22367841 0.26022363 0.3087692 0.11036644
0.19534008 0.096333556 0.08749891 -0.09882372 -0.2822208 -0.2580022 0.13834228 -0.14611062
-0.2025403 0.08104727 -0.010709113 -0.2549811 0.4030693 -0.1374174 -0.10182358 0.10609805
-0.07110523 -0.17124909 -0.20742494 0.0060574007 -0.20105296 0.18091108 0.04663439 0.13433327
0.13856733 0.20124173 0.22220804 0.07041364 -0.24558993 -0.03314163 0.38470307 0.22955939
0.016698454 0.17648284 -0.022108292 -0.28956842 -0.38046628 -0.48516202 0.26767093 0.07032831
-0.1432017 -0.21368524 0.24787076 0.1253773 0.31494036 0.0020276713 0.138623 0.17729278
-0.07228089 0.32745495 -0.019724585 0.08709857 -0.09882819 -0.005747788 -0.040713456 -0.21983604
0.1016204 -0.001918293 0.08509505 0.105901375 -0.083795436 0.29997936 0.030521993 0.30515006
-0.76292795 -0.09861888 -0.24223723 -0.50052124 -0.09242586 -0.09413651 -0.058542415 0.01641755
0.10735769 -0.17901792 -0.12217896 0.22546804 0.103510484 -0.068025954 0.107709646 -0.06208685
0.23509647 -0.19668774 -0.25756717 0.2503382 0.035346452 0.06402339 0.072291605 0.16688715
0.15033896 0.10576506 0.1878881 0.05205528 -0.18238357 -0.00018156834 0.084551975 -0.100722216
0.02979947 0.15843335 0.16138753 -0.16073652 -0.27819222 -0.32313678 0.18644148 0.34289482
-0.019441055 -0.21982619 0.32453352 0.2729876 -0.30255795 -0.025814312 0.19708884 -0.41249838
-0.24966396 -0.19150287 -0.023498474 -0.17420682 0.04500754 -0.2676722 0.24266632 -0.084956035
0.010714221 0.12906983 0.01661375 0.021683535 0.0013994073 0.15028797 -0.126519 -0.23606528
0.14474505 0.005171174 -0.05762658 -0.19358358 -0.12289596 -0.1838475 0.08827815 -0.012199686
0.15448889 -0.4600978 -0.3384384 -0.07394188 -0.06921465 0.07598358 -0.1719072 -0.07851074
0.071030475 0.34402856 0.050454296 0.056422338 0.12435245 0.20770168 0.007828386 -0.15747939
-0.20692572 0.028594328 -0.063181795 -0.31056663 0.09015966 0.022117151 0.21004239 0.113314606
-0.315302 -0.056229986 -0.1502966 -0.32509738 0.023878537 -0.06036511 0.020707417 -0.08798944
-0.13837862 0.09052405 0.32722214 0.06582095 -0.09942009 -0.15402785 0.15351772 -0.26032186
0.084607504 -0.44081783 -0.033432532 0.19539158 -0.14274141 0.059349433 -0.19485591 0.38248616
-0.08696054 -0.0022917774 -0.18092123 -0.29355004 -0.26912495 0.18008494 0.20698982 -0.3159372
-0.23815109 -0.09840845 -0.035830643 -0.5392496 -0.22131526 -0.11881812 -0.083277985 -0.238494
00000000: 60b6 a1be cb78 823c 47e9 373d 1ae5 86bd
00000010: 656e 933e dd07 8cbe 5bc8 2ebc 11f3 023e
00000020: daf9 a6bd f7bc c73d 1d21 d9bc f04f 8f3e
00000030: 78b5 3a3e cb62 c43d 1c37 7ebe 9a76 853e
00000040: 5ce6 4cbe 0bc0 c73d ef33 21be 93bf bfbe
00000050: 0b17 84bd fa26 a43e f46e a5bd e1e6 223e
00000060: b084 33bf 507b a13c 15d0 673d 7684 bfbe
00000070: 51db fbbd fa8a 90bd eb7e a23d 0c35 5ebe
00000080: 31d3 96be 604e 933b fff7 143e a0f7 87bd
00000090: 7192 4dbe 63d5 25be 9f9b e63c 4b1b 773c
000000a0: b2bd c8bd 0499 cabd 8d8f e4be e8c7 13be
000000b0: 9e6c 09be 2dd4 843d 292c 9c3c 933b be3d
000000c0: 906e 81be ca85 cc3e 2cb8 edbd 4f42 7b3c
000000d0: f40b 65be 083c 853e ff16 9e3e cd07 e23d
000000e0: 3b07 483e 874a c53d a132 b33d 1764 cabd
000000f0: 3f7f 90be dd18 84be 99a9 0d3e 069e 15be
00000100: b966 4fbe 1cfc a53d 4775 2fbc e28c 82be
00000110: 195f ce3e 26b7 0cbe e288 d0bd ef49 d93d
00000120: 9e9f 91bd ec5b 2fbe 3467 54be 297d c63b
00000130: d4e0 4dbe c140 393e b403 3f3d a98e 093e
00000140: 98e4 0d3e 5012 4e3e 818a 633e 0735 903d
00000150: ed7b 7bbe 85bf 07bd cdf7 c43e 9e11 6b3e
00000160: 32cb 883c ebb7 343e 731c b5bc 5042 94be
00000170: 7acc c2be 2867 f8be 2a0c 893e 4a08 903d
00000180: 77a3 12be 4ed0 5abe d5d1 7d3e e862 003e
00000190: dd3f a13e aee2 043b 30f3 0d3e 3d8c 353e
000001a0: 0108 94bd 2da8 a73e 7495 a1bc bc60 b23d
000001b0: 6f66 cabd f157 bcbb 27c3 26bd b31c 61be
000001c0: 5b1e d03d 3b6f fbba 5046 ae3d d2e2 d83d
000001d0: f19c abbd e596 993e 4209 fa3c a13c 9c3e
000001e0: 3f4f 43bf b2f8 c9bd 090d 78be 2922 00bf
000001f0: c549 bdbd a4ca c0bd 2cca 6fbd 197e 863c
00000200: 59de db3d 7950 37be f638 fabd 18e1 663e
00000210: 4efd d33d 3151 8bbd e096 dc3d c84e 7ebd
00000220: 21bd 703e 8368 49be d8df 83be 542c 803e
00000230: 71c7 103d b21e 833d 9f0d 943d 77e4 2a3e
00000240: 75f2 193e 5a9b d83d bd65 403e eb37 553d
00000250: c2c2 3abe 6163 3eb9 9629 ad3d 7347 cebd
00000260: 051e f43c 5a3c 223e c642 253e 1d98 24be
00000270: 366f 8ebe 2f72 a5be 84ea 3e3e e98f af3e
00000280: d942 9fbc 1e1a 61be 4229 a63e 08c5 8b3e
00000290: e0e8 9abe 8978 d3bc a8d1 493e fd32 d3be
000002a0: e9a7 7fbe 5419 44be df7f c0bc 4663 32be
000002b0: d459 383d 550c 89be 857d 783e 6efd adbd
000002c0: b38a 2f3c e22a 043e 8f19 883c aba1 b13c
000002d0: 516c b73a 17e5 193e 328e 01be 19bb 71be
000002e0: 0c38 143e f472 a93b d909 6cbd c63a 46be
000002f0: e1b0 fbbd 8542 3cbe 2dcb b43d 31e1 47bc
00000300: 5632 1e3e f091 ebbe cc47 adbe d76e 97bd
00000310: 69c0 8dbd 479d 9b3d 7108 30be 3dca a0bd
00000320: 6d78 913d 8324 b03e 2aa9 4e3d 1c1b 673d
00000330: 7fac fe3d c0af 543e a142 003c 4742 21be
00000340: 56e4 53be a73e ea3c 7565 81bd 9702 9fbe
00000350: a1a5 b83d 072f b53c 5a15 573e 7d11 e83d
00000360: 446f a1be 6a51 66bd 5ae7 19be 2a73 a6be
00000370: ec9c c33c 6841 77bd 9aa2 a93c cf33 b4bd
00000380: 20b3 0dbe ac64 b93d a989 a73e 22cd 863d
00000390: c39c cbbd 7ab9 1dbe c033 1d3e e848 85be
000003a0: b346 ad3d e0b2 e1be 8df0 08bd bb14 483e
000003b0: ce2a 12be 6418 733d 4f88 47be 3ad5 c33e
000003c0: 5e18 b2bd a531 16bb 6a43 39be 314c 96be
000003d0: bfca 89be 3068 383e 24f5 533e 85c2 a1be
000003e0: e1dd 73be 5f8a c9bd 27c3 12bd 430c 0abf
000003f0: 78a0 62be ea56 f3bd a68d aabd c537 74be

context_transformer_0/ffn_layer_2/intermediate_dense/einsum/Einsum;context_transformer_0/ffn_layer_2/intermediate_dense/Relu;context_transformer_0/ffn_layer_2/intermediate_dense/add f4 [32]
0.06253113 -0.25634345 0.031557217 -0.18319458 -0.21935481 0.057029065 -0.105393186 0.2378533
-0.14302468 -0.21767135 -0.18231775 -0.5944936 -0.31728187 0.06743959 0.024097335 -0.10538997
-0.15620275 -0.39744547 -0.11977047 -0.33509097 -0.039547104 -0.4035599 0.2760382 -0.062295686
-0.30222595 0.13400108 -0.08005508 0.15754779 0.041365955 -0.25553223 -0.31801847 -0.08157013
00000000: 5210 803d 733f 83be 2442 013d 5c97 3bbe
00000010: 8c9e 60be 4f97 693d 62d8 d7bd d18f 733e
00000020: 1075 12be 3de5 5ebe 81b1 3abe bc30 18bf
00000030: c572 a2be c51d 8a3d c667 c53c b2d6 d7bd
00000040: 9df3 1fbe f97d cbbe 384a f5bd 0b91 abbe
00000050: 25fc 21bd 679f cebe e154 8d3e c329 7fbd
00000060: 5cbd 9abe 9437 093e ebf3 a3bd 3554 213e
00000070: 596f 293d 1fd5 82be 51d3 a2be 3e0e a7bd

context_transformer_0/ffn_layer_1/norm/mul;context_transformer_0/ffn_layer_1/norm/add;context_transformer_0/ffn_layer_2/intermediate_dense/einsum/Einsum;context_transformer_0/ffn_layer_2/intermediate_dense/Relu;context_transformer_0/ffn_layer_2/intermediate_dense/add f4 [32, 32]
-0.2848487 0.1585102 0.1033141 -0.22928233 -0.14438207 -0.15846896 -0.22890557 0.094216935
0.1828697 0.06787556 -0.110742174 -0.07120562 -0.091891006 0.12149971 -0.32283583 0.113002636
0.28755364 0.05427045 0.05492738 -0.07632831 -0.02066547 0.3433947 -0.2344588 0.2527084
-0.13834216 -0.03223525 -0.16571285 -0.18073803 -0.023610376 -0.035284862 0.26824164 0.036868874
0.24138893 -0.19159593 -0.18933372 -0.26625 0.15021977 0.048595242 -0.21252057 -0.18412037
0.19117609 0.23352267 0.089525744 -0.11918281 -0.023639018 -0.12229529 -0.16457209 0.076920524
0.19540644 -0.08776398 -0.25309575 -0.072547756 0.11126013 0.13703208 0.25232697 0.14137103
0.025694147 0.06682276 -0.0050084796 -0.079747476 -0.099748865 -0.13863085 0.18142 0.004432323
-0.0047105993 0.08998774 -0.10633118 0.0088542225 -0.082531065 -0.14148678 -0.0071382495 -0.23190066
0.2823609 -0.04895175 -0.21349101 0.17468287 0.1451366 0.10999655 0.16552593 0.04840524
0.18947193 0.24682966 0.03225689 0.019703247 -0.10246359 -0.08952708 -0.10397127 0.011576265
-0.10389767 0.21196097 0.09591605 -0.014832845 -0.105184816 -0.42452422 -0.07615486 0.09317076
0.17839102 -0.35597333 0.034096126 -0.033663552 -0.03682881 -0.14191495 0.069778316 -0.017080288
0.02927357 0.022337928 0.01337726 -0.07856805 0.042198006 -0.08493007 0.31494635 0.2970942
0.23335561 -0.0614594 0.2434764 -0.5365641 0.004496898 -0.033115875 -0.0062818313 -0.08005733
-0.0001990517 0.17908703 0.020423686 -0.37878773 0.021347417 0.0067290226 -0.005572637 -0.101348855
-0.026758749 0.08330695 0.012865268 0.0152412485 0.16155493 0.22443196 -0.030062944 0.031793162
-0.14370716 0.22390787 0.054002278 0.035175838 -0.051736202 -0.0010124035 -0.01379932 0.21887496
0.40337482 0.020648817 -0.08969478 0.22915626 -0.10791979 -0.13439445 0.090611935 0.28860554
0.12459276 0.12501055 -0.20420597 0.012381026 -0.14555977 -0.026033463 -0.08431773 -0.08921437
-0.25011623 0.03547616 -0.020722704 0.008274971 -0.09461029 -0.1233419 0.013948027 -0.24379653
-0.05887217 -0.10643515 -0.24688047 0.0735614 -0.027239583 0.017664887 -0.040119868 -0.06667513
-0.05247048 0.22868598 -0.21799895 -0.16280103 -0.12963277 0.07417066 -0.035848603 0.12098436
0.124418385 0.18670216 0.05406825 0.054175805 -0.114635944 -0.5769437 0.0035335205 -0.1970144
0.025067339 -0.0998456 0.12548894 0.014250488 -0.18583187 -0.2992918 0.09037574 0.18548508
0.28430283 -0.20295364 0.09787915 0.11877468 -0.24376152 -0.0028163341 0.07714259 0.024847569
0.14309546 0.09589515 -0.08828521 0.13349938 -0.09917308 -0.115102224 0.0585288 -0.18471214
0.2590881 -0.2752434 -0.3349001 -0.0912605 -0.19135049 -0.14648157 -0.05020562 -0.08221385
-0.12970783 0.017584229 0.075819835 -0.10321794 -0.2885161 -0.015508362 -0.04836659 0.038279638
-0.023949 -0.07676298 -0.32253787 -0.01307244 -0.1019194 0.02394405 -0.062551685 0.057097368
-0.09420062 0.3161692 -0.13435254 0.033834178 -0.2403652 0.23803273 0.13203229 0.071969405
0.013624758 0.041089885 0.082599156 0.03899315 -0.28011298 -0.32483503 0.0752748 -0.08125827
00000000: b0d7 91be 7f50 223e 5896 d33d fdc8 6abe
00000010: e5d8 13be b045 22be 3966 6abe cff4 c03d
00000020: 3242 3b3e 5702 8b3d cbcc e2bd 41d4 91bd
00000030: 5a31 bcbd d7d4 f83d bd4a a5be ed6d e73d
00000040: 3b3a 933e b14a 5e3d 88fb 603d 0452 9cbd
00000050: a24a a9bc 6ed1 af3e f815 70be ff62 813e
00000060: 91a9 0dbe 1c09 04bd a1b0 29be 6413 39be
00000070: 8c6a c1bc dc86 10bd f856 893e d103 173d
00000080: a92e 773e b931 44be b3e0 41be ec51 88be
00000090: 36d3 193e ce0b 473d fe9e 59be 0d8a 3cbe
000000a0: aac3 433e 9120 6f3e 4659 b73d 1e16 f4bd
000000b0: 9da6 c1bc f475 fabd 9685 28be 8288 9d3d
000000c0: a018 483e 9abd b3bd c495 81be eb93 94bd
000000d0: 5adc e33d 2352 0c3e 0031 813e 91c3 103e
000000e0: 887c d23c 5fda 883d 2c1e a4bb a552 a3bd
000000f0: 2249 ccbd 3ff5 0dbe 2ac6 393e 053d 913b
00000100: 5f5b 9abb 7e4b b83d 29c4 d9bd 4d11 113c
00000110: 0c06 a9bd e9e1 10be fae7 e9bb 5e77 6dbe
00000120: 9c91 903e a181 48bd 639d 5abe 11e0 323e
00000130: b09e 143e df45 e13d a17f 293e 9344 463d
00000140: ee04 423e eac0 7c3e cd1f 043d b468 a13c
00000150: 6ed8 d1bd f959 b7bd e4ee d4bd 60aa 3d3c
00000160: 4dc8 d4bd 4c0c 593e a26f c43d 7605 73bc
00000170: 236b d7bd 3d5b d9be 14f7 9bbd 50d0 be3d
00000180: 23ac 363e 2342 b6be 61a8 0b3d cbe2 09bd
00000190: ced9 16bd 2752 11be efe7 8e3d f6eb 8bbc
000001a0: 20cf ef3c 08fe b63c 4c2c 5b3c 49e8 a0bd
000001b0: d1d7 2c3d d1ef adbd a640 a13e bb1c 983e
000001c0: c6f4 6e3e dabc 7bbd e151 793e 445c 09bf
000001d0: b75a 933b 83a4 07bd d2d7 cdbb 19f5 a3bd
000001e0: 89b8 50b9 9762 373e 934f a73c 77f0 c1be
000001f0: c7e0 ae3c 227f dc3b ab9a b6bb fd8f cfbd
00000200: 2a35 dbbc d69c aa3d d8c8 523c 6eb6 793c
00000210: a86e 253e 7ed1 653e 9046 f6bc 8c39 023d
00000220: f827 13be 1b48 653e 7e31 5d3d 8a14 103d
00000230: 57e9 53bd a0b2 84ba 8b16 62bc c220 603e
00000240: 2587 ce3e b527 a93c e6b1 b7bd f0a7 6a3e
00000250: 0d05 ddbd b39e 09be c092 b93d 1bc4 933e
00000260: 7d2a ff3d c402 003e 5f1b 51be c9d9 4a3c
00000270: 9f0d 15be 2144 d5bc c6ae acbd 06b6 b6bd
00000280: 3c0f 80be 734f 113d a9c2 a9bc be93 073c
00000290: 0ac3 c1bd ae9a fcbd 4486 643c cca5 79be
000002a0: f223 71bd acfa d9bd 3cce 7cbe 5ca7 963d
000002b0: 8c25 dfbc f4b5 903c bb54 24bd f88c 88bd
000002c0: 49eb 56bd a82c 6a3e 1e3b 5fbe 50b5 26be
000002d0: 74be 04be c9e6 973d fcd5 12bd a6c6 f73d
000002e0: 11cf fe3d da2e 3f3e ab76 5d3d 73e7 5d3d
000002f0: 40c6 eabd 95b2 13bf a392 673b 25be 49be
00000300: 055a cd3c da7b ccbd 2c80 003e e17a 693c
00000310: b64a 3ebe c63c 99be ea16 b93d cdef 3d3e
00000320: 2490 913e 14d3 4fbe dd74 c83d 2440 f33d
00000330: 9f9c 79be 3f92 38bb effc 9d3d 218d cb3c
00000340: 9e87 123e ad64 c43d e0ce b4bd 10b4 083e
00000350: 411b cbbd b7ba ebbd e5bb 6f3d 2e25 3dbe
00000360: 32a7 843e b4ec 8cbe 0778 abbe c9e6 babd
00000370: 62f1 43be 44ff 15be 68a4 4dbd bc5f a8bd
00000380: 21d2 04be cd0c 903c 6e47 9b3d ed63 d3bd
00000390: 62b8 93be c916 7ebc 0c1c 46bd 1ccb 1c3d
000003a0: b130 c4bc e935 9dbd af23 a5be ca2d 56bc
000003b0: 1ebb d0bd 5026 c43c 191b 80bd eede 693d
000003c0: 41ec c0bd eee0 a13e b693 09be b595 0a3d
000003d0: 4c22 76be dabe 733e 7933 073e b264 933d
000003e0: 613a 5f3c de4d 283d bf29 a93d 48b7 1f3d
000003f0: f86a 8fbe c750 a6be ad29 9a3d bc6a a6bd

context_transformer_0/ffn_layer_3/intermediate_dense/einsum/Einsum;context_transformer_0/ffn_layer_3/intermediate_dense/Relu;context_transformer_0/ffn_layer_3/intermediate_dense/add f4 [32]
-0.21270831 -0.20707749 -0.103212714 -0.05372656 -0.1579455 -0.040836394 -0.22389139 0.15136994
-0.29178792 -0.36366594 0.044433597 -0.1413642 -0.07241909 -0.17006795 -0.3731925 -0.008397967
-0.05757214 -0.0584813 -0.3427989 -0.04898844 0.017028227 -0.17460144 0.07464135 -0.042024266
-0.22552566 -0.13414016 -0.35432562 0.055514496 -0.08273615 -0.23687775 -0.3773105 -0.1297244
00000000: 35d0 59be 1f0c 54be 3061 d3bd 6210 5cbd
00000010: 77bc 21be 1044 27bd c943 65be b900 1b3e
00000020: 3a65 95be 6c32 babe 0100 363d c7c1 10be
00000030: 7650 94bd 4b26 2ebe 1613 bfbe a097 09bc
00000040: c4d0 6bbd 168a 6fbd 5683 afbe 1aa8 48bd
00000050: c87e 8b3c b8ca 32be 90dd 983d a321 2cbd
00000060: 33f0 66be 0a5c 09be 2b6a b5be 2b63 633d
00000070: 9271 a9bd 1590 72be d82e c1be 79d6 04be
